app/model_storage/ch4/surname_mlp/model.pth (torch, 117184 bytes, 4 tensors)

fc1.weight f4 [300, 77]
00000000: 8fd5 c4bd eefc 483d fb15 93bd a659 8cbd
00000010: a655 3bbd e41f f5bd e2cd 0d3c c2fa f0bd
00000020: e514 00bc d8fe 413d f635 3abd 1f2e 1f3d
00000030: 4045 0b3c 4c44 2d3e 0fd4 78bc 1951 34bd
00000040: 7a8f ee3d 7744 1b3e 52bc d2bc 7331 22be
00000050: 1f71 553e 4054 32be eedd 1f3e 0cdb fa3d
00000060: 86d3 22be ce12 bf3d e3d0 05bc 3e25 003d
00000070: 4945 233e cb67 513e 9157 a7be 90fd e03d
00000080: 2143 9bbe 82c3 873d 9fa5 dd3d 1053 193d
00000090: 0611 823d 24e2 0ebe 0624 093e f2f1 3abe
000000a0: 0bf9 773e 8593 e5bd a489 b2bd d001 863e
000000b0: b9a5 96bc 1d03 ec3c cada 543e ccb9 c5bd
000000c0: be5e a13e 3603 82bd f6cc d73e 67bc 41bd
000000d0: 2001 4c3e 489d a93e 835c 353e 20e5 4b3c
000000e0: 062d fbbd 9fc1 3a3e b62a 493c 7b0a 20be
000000f0: 557d 50be b758 58be 6d99 6fbe ed4c aebd
00000100: d178 3a3e 5628 e63d 07cb 453d 56b1 e53c
00000110: d4ce bdbd a6e4 5dbd 6280 d5bd b0f5 41be
00000120: 2953 1dbd dfff 3dbd 9aaf e4bd 63c7 34be
00000130: 518d 1fbd 70f9 97bd 5422 903b c99b 00bc
00000140: 556f 5c3e c014 aabd 5520 8b3d 64bf 703c
00000150: a81f 243c 6d91 21bd baf6 b53d 8edf 16be
00000160: 66c4 9abe ec9a 043d 99e1 e7bd 618b 1d3e
00000170: 4f2b a63d 2b92 debc 16ef ff3d 4963 ea3d
00000180: c1ef 5a3e 2d10 47bd 6e8c b03d 3103 083d
00000190: 8a2d 7e3c ad12 8f3e 8e79 bb3c d5f1 203e
000001a0: 768c 37bd a96d 823d 9419 f8bc 7e4c 80be
000001b0: 2d83 0dbe 4e8e b5bd 2b9a 3cbd 1cab 133e
000001c0: ba7a 4ebd 27a8 37be c08b d4bd 1913 1a3e
000001d0: fd04 87be e173 d1bd 16b7 003e bd86 193d
000001e0: c516 2cbd c72f 3dbe 93b4 60be e52a 8ebd
000001f0: 7b6d e6bd b106 883d ba6c 94bd 1fec 6abd
00000200: 5955 83be fc11 0fbd 7c2c fdbc e738 8d3e
00000210: b00e 013d 06d6 433e 1574 a13d fc95 e5bd
00000220: 04e7 4e3e 39fc b43d 3a3b 783d 30ba 103e
00000230: eb44 92be 5ec3 2abe 5474 50be 0f10 1fbe
00000240: 41bd b2bd d65c cebd 85f7 a43d cf48 42be
00000250: 1028 18be 7a82 19be 75ef 353e c4e0 1cbe
00000260: 4097 ebbc f362 dcbd 0ea4 c8bc 3d02 7dbe
00000270: 2924 083c b6fa 0d3e 7b32 5dbe 590c a7bd
00000280: 409d 4abd af52 183e 4aa2 36be 9bf1 703e
00000290: 8939 273e a956 b23d aa8b 233e 2341 b93d
000002a0: 885f 893d 7216 cebd 0de3 573c 26ae 0d3e
000002b0: b954 94bb 5d92 e7bb 2d57 793c a349 31bb
000002c0: c4b1 3f3d 0a3f 9c3e ab94 9ebd 452f a13d
000002d0: 1ed9 583d 4843 643d 690c 183e 32cf 8a3e
000002e0: 974b 643d 2c1a 44bd 2431 8abe 042d 483e
000002f0: 9e66 ec3c e31d 17be 996c 733d c886 a2be
00000300: b2ad 56bd ccf7 8d3d cb88 6f3e 56fc d93d
00000310: 637e 933e 4beb 573d e054 e6bd 28dc 54be
00000320: 20dd cfbd 003c d8bd d693 363d 9cd6 cebd
00000330: d1c8 aa3d f15c 9a3d cfb3 5d3e 419f d4bd
00000340: 8b9f 113d 0b7f adbd 7b87 8fbc 189b 9e3d
00000350: 8670 3fbe 70c2 293e 8dd0 703e 4158 073e
00000360: 50d5 fa3d 44bf 12be ada1 ac3d c3b5 533e
00000370: 0421 793e 628b bc3d 7175 843e ad61 0d3e
00000380: eb56 c0bc 9797 f03d 15ad 893d 0722 0dbd
00000390: 3560 b9bb 2e33 463c 2cbb b3bd c920 9abd
000003a0: 2d0f 973d 3e1b 993d 9774 7ebd 1b9d 893d
000003b0: 5207 173e e9b7 8abd 35dc 26be 091e f13d
000003c0: e6f6 f13d 3a46 a3bd b5cd 313d 0b5a 8f3d
000003d0: 62cd 5e3e 3ab9 b1bd 956b 05be bbbe a93d
000003e0: ed28 6e3e eb21 93bc a38a 0c3d a7b6 f93d
000003f0: e0e8 0fbe ea45 2b3e 5c6d 2e3e bd3f 07be
-0.096110456 0.049069338 -0.07181927 -0.068530366 -0.045735978 -0.11968973 0.008655043 -0.11766578
-0.007817482 0.04736218 -0.045461617 0.038862344 0.008500397 0.16920584 -0.015187277 -0.044022653
0.1164846 0.15162836 -0.025724564 -0.15839176 0.20843934 -0.17414951 0.15612003 0.12248811
-0.15901002 0.093297586 -0.008167478 0.031285517 0.15944399 0.2044975 -0.32683995 0.10985863
-0.30324653 0.06629087 0.10822605 0.03743273 0.06350903 -0.13953453 0.13392648 -0.18256357
0.24216096 -0.11209778 -0.08717659 0.26173258 -0.01838957 0.028810078 0.20786586 -0.096545786
0.31517595 -0.06348269 0.4214856 -0.047298815 0.19922304 0.3312781 0.17711072 0.012444764
-0.12264447 0.18237923 0.0122782495 -0.15628998 -0.2036031 -0.21127592 -0.23398371 -0.08510766
0.1821015 0.11238162 0.048289325 0.028038662 -0.09267965 -0.054173134 -0.10424878 -0.18941379
-0.038409386 -0.046386596 -0.11166306 -0.17654185 -0.03895313 -0.07420623 0.0043986235 -0.007849642
0.21526845 -0.08304739 0.06793276 0.014694069 0.010017313 -0.03944533 0.0888495 -0.14733717
-0.30227965 0.032374308 -0.11322326 0.153852 0.08113729 -0.027169308 0.12496774 0.114447184
0.21380521 -0.04859941 0.08620535 0.03320617 0.015513787 0.27943936 0.02288511 0.15717252
-0.04481169 0.06368572 -0.030285634 -0.2505836 -0.13819571 -0.08865033 -0.046045464 0.14420742
-0.05041001 -0.17935239 -0.10378218 0.15046348 -0.26370993 -0.1022718 0.12569842 0.037482012
-0.042013902 -0.18475257 -0.21943884 -0.06941775 -0.112513505 0.06641901 -0.072473004 -0.05735409
-0.25651053 -0.03492926 -0.030905 0.27582476 0.031508148 0.19124612 0.07883469 -0.11210248
0.20205313 0.0883717 0.060603358 0.14133525 -0.28568205 -0.16676089 -0.20356876 -0.1553347
-0.087275036 -0.10076301 0.08055023 -0.18973087 -0.14859033 -0.14991179 0.17767127 -0.15320116
-0.028758645 -0.107610606 -0.02449229 -0.24707885 0.0083094025 0.1386517 -0.21601288 -0.08156652
-0.04946637 0.14875291 -0.17835346 0.23529665 0.16330542 0.08707935 0.15971246 0.09045627
0.06707674 -0.10062875 0.013176692 0.13835964 -0.0045267013 -0.0070670084 0.015218538 -0.0027051948
0.04680039 0.30516845 -0.077432 0.07870344 0.052941434 0.055728227 0.14848484 0.27111202
0.05573615 -0.047876522 -0.26990616 0.19548422 0.028857525 -0.14757495 0.05942974 -0.31743455
-0.052411743 0.06932029 0.23392026 0.106438324 0.28807363 0.052714627 -0.11246657 -0.20787108
-0.10149598 -0.10558319 0.04457458 -0.10099527 0.08339084 0.075372584 0.21650623 -0.10381938
0.035552543 -0.08471497 -0.017520657 0.077444255 -0.18695268 0.16578078 0.23517056 0.1321726
0.122477174 -0.14330775 0.08429275 0.20674805 0.24329 0.09206273 0.2587085 0.13806792
-0.023478946 0.117476635 0.06722466 -0.03445628 -0.0056572207 0.012097163 -0.087759346 -0.075257845
0.073759414 0.07475899 -0.062122907 0.067194186 0.14748886 -0.06773359 -0.1629494 0.11773307
0.1181467 -0.07972379 0.04340907 0.06999596 0.21758035 -0.08677907 -0.1302932 0.08288332
0.232578 -0.01796051 0.0343119 0.12193041 -0.14053679 0.16725889 0.17033905 -0.13207908

fc1.bias f4 [300]
00000000: 72dc b03d 580d 183e 54da 2b3e bb41 5cbd
00000010: 89dc acbd 583b 24bc 75a0 c0bd fc2f 833e
00000020: 6fe9 b8bd 55bb e1bc 073c 9e3e d0c9 113d
00000030: 441a 3c3e 2b3d 8a3d 0367 da3d faf8 a83d
00000040: fcc7 213d 16b4 833e 8065 d83d 1d36 06be
00000050: ac91 b33d d76e 0d3e 1102 c43c e696 853d
00000060: 5f90 a63e deb3 b7bd 7121 c5bd 92fb 52bd
00000070: 111a 5a3e a9a3 f13a e2d7 0cbc 7cfb 8ebd
00000080: bcf1 cc3d 311c a6bb ce70 433e 882b 12be
00000090: 43e2 303e 2ab2 8f3d f4b1 413e e25f a13d
000000a0: d2c2 99bd fe84 29be f078 733c b3a3 6a3e
000000b0: e475 7bbc eb34 0ebe 38d2 f23d 476e 36bd
000000c0: c5f3 033d e157 97bd b558 e33e 42a1 8d3e
000000d0: 05fe 1cbd 8e0e 0d3e b8c3 0cbe 27a6 933d
000000e0: 85a8 f03d 2d8a d0bd 124c 183e c701 5c3e
000000f0: 5e38 c13d 7adc 493e d715 f2bd b577 4dbe
00000100: 7211 bf3d 9ea9 093d ba30 2cbe e0d0 8f3e
00000110: 9ff6 4b3e f84e 0a3d 63da 243e 48d1 7c3e
00000120: fc8c 013e 26d7 813e 6b85 38be 49df 503e
00000130: a0d4 76bd 098b b5bd bec6 81bd 96da 2cbe
00000140: fa4f 11bd ffb3 b73d 7bbc 213e 905d 123d
00000150: 7df6 11bd addf 4e3d a365 203e c376 643e
00000160: 93fe d83b 181a 92bd f6bc f03d 7be0 dc3d
00000170: 67b8 983e a60a 653e 3d75 163d 3cbf 0bbe
00000180: d01e 9a3e 0830 5cbd b3e0 153e ee4b 92bd
00000190: 9718 1b3d 7528 c43d 0279 73be 3c40 603e
000001a0: 545b 343e 2e05 72bd f075 5ebd 6b74 7c3d
000001b0: 0fb7 033e ccf9 213e d67b 35be c118 5cbd
000001c0: dbbe 923e e0af 8e3c ac7b 64bd 660c cdbd
000001d0: 6d8c d5bd b3c6 7c3d 0716 91bc 31dd 893e
000001e0: 9bf7 d63d 5b7a 89bd 760c 883e e5ef 253d
000001f0: b19d 173b e084 13be 2a29 c5bd e25f 1e3d
00000200: 0af7 90bd 4606 5e3e 9a41 36bd ae0c ae3d
00000210: e770 393e 142d d4bb 2f09 503e 7736 5f3e
00000220: 6482 28be 12ec f5bc 1246 313e 506c 8d3e
00000230: dcc7 423e 9088 243e 8cfd a63e 40f9 32bd
00000240: 9170 953e 5f1c 503e 091f 713d 2e87 623b
00000250: 8166 a4bc f4d1 a03e d478 5f3d a9fd 03be
00000260: 5781 1b3e de09 e83b 2836 c93d a192 9cbd
00000270: 76b0 053e febc 463e ae2e d63d 33c2 603d
00000280: 7817 2a3e d511 b03d 587e 363e fe63 2f3e
00000290: e8dc c63d 43b4 4a3e 6bce bc3d 08fd da3d
000002a0: d6f2 933e 68cc 763e 01a1 a0bb 6fce 343c
000002b0: 587e a73c bcb7 0e3e 8108 f93d 4748 aebd
000002c0: 0ed0 52bd 0fa2 d6bd 98bb 083e 26bb bc3d
000002d0: 3875 a73d 1736 913d 5c92 7c3d 85c5 4d3d
000002e0: 48f1 2c3d 70d4 0bbd 4592 753d df47 ab3d
000002f0: b85e 4d3d ab59 b2bd eea5 853e 83ee 1f3e
00000300: 0331 dd3c aa29 083e d1ec a73e 6626 1b3e
00000310: 2cd9 a8bd a882 ddbd 9e86 cc3d 7636 813e
00000320: 32e0 d8bd 4b0b 973d 57c7 dc3e ad87 243d
00000330: eccf cf3c d8fa 8d3e d06e ec3d 8ea4 17bd
00000340: 9c3e f7bb c463 1e3e 683e 2cbc 5a89 0a3d
00000350: 8a39 6f3e 69f7 02be 5aff 5c3e 14e0 1a3e
00000360: 8cfb 763d 55ce a73e a4af 09bd 1643 ed3d
00000370: 5612 b9bc 84b0 053d beb6 383d a219 623e
00000380: a194 783e 4337 463e 03ec 7f3e 8d24 c3bd
00000390: 2793 5b3e 514b 12be f884 953d 87e8 3b3e
000003a0: 44e7 5b3e c31d ad3d 91be 873e 7bd6 363d
000003b0: 92b1 afbd 05de a73d d37b 79bd 2a11 f1bd
000003c0: 3884 5e3d 87b4 fa3c 6280 803e b4f5 573e
000003d0: 01ea 503e 6646 313e 2305 513e 3f5b 23bd
000003e0: fed0 94bd 6b24 9dbc 145e 86bd f307 88bc
000003f0: a73d 883e 60bd 20bc 7f7b 363e db41 8bbd
0.086357966 0.1484884 0.16782504 -0.053773623 -0.08440501 -0.010023914 -0.09405605 0.25622547
-0.09028899 -0.027555147 0.30905172 0.035592854 0.18369395 0.06749948 0.10664179 0.082506135
0.03949736 0.25723332 0.105662346 -0.1310658 0.08768019 0.13811813 0.023926767 0.06522922
0.3253202 -0.08969854 -0.09625519 -0.051509447 0.21299006 0.0018435615 -0.008596392 -0.069815606
0.10007045 -0.0050692786 0.19086 -0.14274418 0.17273812 0.07016404 0.1891554 0.07879616
-0.07507862 -0.16554639 0.014860377 0.22914009 -0.0153479315 -0.13887374 0.11856502 -0.044538762
0.0322149 -0.073898084 0.44403616 0.27662092 -0.03832819 0.13775083 -0.13746536 0.072094254
0.117508925 -0.10182605 0.14872769 0.21485053 0.09434579 0.19713011 -0.11820572 -0.20065196
0.09329499 0.033609025 -0.16815463 0.28089046 0.19918297 0.033766717 0.16098933 0.2468921
0.12651438 0.25359458 -0.18019645 0.20397677 -0.06026137 -0.088644095 -0.06336735 -0.16880259
-0.035476662 0.089698784 0.15794556 0.03573376 -0.03563546 0.050506283 0.15663771 0.22310929
0.0066221445 -0.07133883 0.117547914 0.10785004 0.29828188 0.22367343 0.0367329 -0.13647169
0.30101633 -0.053756744 0.14636497 -0.07143389 0.037865248 0.09578029 -0.2377663 0.21899503
0.17612964 -0.05908697 -0.054311693 0.061634462 0.128628 0.15817946 -0.17723021 -0.053734545
0.28661236 0.017417848 -0.055782005 -0.100121304 -0.10427175 0.06171293 -0.017710699 0.26926568
0.10496446 -0.067127906 0.26572007 0.040511984 0.0023134763 -0.14406157 -0.09626992 0.03866566
-0.07078369 0.2168208 -0.044496156 0.08498512 0.18109475 -0.0064751003 0.20316003 0.2179812
-0.1645599 -0.030019794 0.17311886 0.27621698 0.19021553 0.1606772 0.32615316 -0.043694735
0.29187444 0.20323323 0.058867488 0.0034565437 -0.020068409 0.31410182 0.05455859 -0.12889732
0.15186058 0.0070812544 0.098247826 -0.07645155 0.13055596 0.19408032 0.10458122 0.054872703
0.16610515 0.08597151 0.17821634 0.17127988 0.09710103 0.19795327 0.092190586 0.10692793
0.28896207 0.24101412 -0.0049020057 0.011035546 0.020445988 0.13937277 0.12159825 -0.085098796
-0.051467948 -0.10480129 0.13352811 0.09215383 0.081766546 0.07090395 0.061663017 0.050237197
0.04222229 -0.034138143 0.059953947 0.08363318 0.05013916 -0.08708509 0.26103157 0.15618329
0.02700091 0.13297144 0.32797864 0.15151367 -0.08244547 -0.10815936 0.09986614 0.25236863
-0.10589637 0.07375201 0.43120834 0.040168453 0.0253677 0.2773044 0.11544573 -0.037022166
-0.0075453054 0.15467745 -0.010512926 0.033822395 0.23361793 -0.12789692 0.21581784 0.15124542
0.060298488 0.32774606 -0.03361477 0.11585061 -0.022591751 0.03263904 0.04509615 0.2208009
0.24275447 0.19357018 0.24992375 -0.09528456 0.21442853 -0.14286543 0.073007524 0.18350421
0.2147494 0.08452942 0.26512578 0.04463814 -0.08578791 0.08196644 -0.060909104 -0.11770852
0.054325312 0.03060366 0.25097948 0.21089822 0.20401765 0.17312011 0.20412116 -0.03988194
-0.072664246 -0.019182405 -0.06560913 -0.016605353 0.26609537 -0.0098107755 0.17820548 -0.0679967

fc2.weight f4 [18, 300]
00000000: ca21 f7be bac2 3b3e efaa aa3d 4463 bebd
00000010: 9dfd 063d e062 32be 4b92 ab3d e36e 21be
00000020: 674c 4abf 8196 323e 0a76 e43d b856 243e
00000030: 6744 b9be fa03 4c3d ffa1 9fbe 9ab4 3f3e
00000040: f6ae 59be 929c 35be 5a80 a8bc d5d3 06bf
00000050: f9b9 583e 0b4c 2ebe 2013 a43d 653b 4ebe
00000060: 54ab dabe 9f4a 8dbf e250 0e3e d8fd 66be
00000070: cd6d 193e 35e0 463e b3f8 8b3c c8f8 d2be
00000080: 65c2 11bd 2c61 43bd 2917 d23d 7393 353c
00000090: 3c42 a63d 837c 53be be7f 143e 37a7 ed3c
000000a0: 2dad 10bd 917a 4d3e f92f e9be 89a0 7abe
000000b0: 2d40 8bbe 6109 19ba 2bde 8f3c 2546 aa3d
000000c0: 37b9 bd3e 189e 893d 9852 b9bd 5d78 81ba
000000d0: 2bda 4a3e 63fb 8b3e 1f90 2ebe 451c 5abf
000000e0: 1551 e6bd b5fd 1d3f 72cb 033e 37d4 d6bd
000000f0: a70b d8bc b47f 8abd 42b4 bc3d 35da 88be
00000100: 8783 063e 3ee4 99bd c81c 54bd 35e5 f6bd
00000110: 18a9 313e 1ef9 cabe 3d95 a23d c1ae e33d
00000120: 03d1 773e 9075 12bd 2026 95be 8759 6bbb
00000130: 64af 0a3e 6493 aebb 77d9 183e a04c 4fbe
00000140: 96b7 25be ce1c 55bb 7291 913e 8db0 26bd
00000150: cc09 e8bc 86ba 083e 35cd 833e fd02 8bbd
00000160: 11a0 dabb bb4d e1bc 0df4 463d 3472 053e
00000170: c878 0d3d fc89 9dbe a9e0 993e 8ad1 49bd
00000180: 03b4 17be 780d f1be 19eb 783e f768 81be
00000190: 2953 853d 17d7 efbe fbf9 45be 3afa 1d3e
000001a0: 1774 79be 8f7d 363e 274d 31bf 6fa8 743d
000001b0: 93cf e6bd 44d2 33bd 50f5 9f3c cf4e 19bf
000001c0: 594e 32be 763c ecbe 405b 6f3d 283a 96be
000001d0: eeb8 263c dacf 07bc 4fdc 9abc f7dd 2dbe
000001e0: 1781 413e fe1d eb3c 7b5d 67be a2f3 803d
000001f0: e4b8 923d 6e66 1cbe ae2f efbe dad9 abbe
00000200: 2197 173d 106c e2be 2268 0d3e 7ded 883d
00000210: 5951 91bd 20a2 c13d 11ae 71be 5a94 933e
00000220: 2284 05bd fe7c 0bbd 05a7 823c 01c3 883e
00000230: 50ec b3be 9c68 39bd 901b 1fbe 1301 5e3d
00000240: 6409 d83d ceec b6bc 40c5 e9bd f1eb cb3c
00000250: f91f bebe 8c8b f8be f9f9 1ebf b9c1 a6bd
00000260: 1821 4bbd 138c 99bd d3e6 8d3e 17e6 8abc
00000270: e860 673e 0736 6b3e fb9d a3bb 78b0 363d
00000280: 8ce6 69be 588e 55bd 012e 9bbe d272 b33e
00000290: 804a 46be ee25 b23d e475 4cbe 641f 173e
000002a0: 5edc 413d 78b2 6b3e 9345 2abf 8c8d 89bf
000002b0: 685b 9fbd 1244 d6bd 857f c5bc e360 95bd
000002c0: 1311 963d 7851 8d3d 32ac 413e 0c41 333e
000002d0: 2bbf 983e 6e06 29bc e587 013f 58df 7e3d
000002e0: 4fc3 033e 93d7 2a3d f2bc 86be 80e1 e2bd
000002f0: 41c5 99bd a8f1 4ebe 62f3 aebe 940e 453e
00000300: f9d3 093e 30c6 eb3c 60f3 153e 0b48 983d
00000310: 8a1e c73d fd4f 40bd 1a7d a13e e27d 2f3d
00000320: 0056 263e 9286 2b3e 27dd 4f3e 67fc a83d
00000330: 3242 8cbe ebd5 213e 2acd 05bd ff5d 88bd
00000340: 96ad 6b3e b0be 933d 5a48 a13e 4979 a33d
00000350: 5d00 1a3e 173c 923d 1688 abba 5e06 8c3e
00000360: 6983 d9bd cc65 ab3d 1184 acbd 05b3 7dbd
00000370: 6b88 5bbd 40e8 193e f110 55bc ec2f 033e
00000380: 3e8f 4f3e 7b84 0abf ef76 6a3e 4f4d 6ebd
00000390: eaaf ef3d 56fe bbbd c71f c73d 9e00 673e
000003a0: 47e3 9ebe 026b 2d3e fca3 67bd 92d5 123e
000003b0: f954 43be f4ae 0d3e 51aa 053e 0fbe 47be
000003c0: 3f7d 1e3b f208 19be 33d3 f93d a229 363e
000003d0: 5bb5 8bbd f6f5 37bf b246 9f3d cca7 6d3e
000003e0: de78 c9be 16f6 dbbe b3b5 43be b78f 77bc
000003f0: 6134 113e 89d7 8b3e b553 6cbe 8c05 053d
-0.48267967 0.18336001 0.08333384 -0.09296277 0.03295671 -0.1742053 0.083775125 -0.15764956
-0.7902283 0.17440225 0.11155327 0.16048706 -0.36185 0.04980848 -0.3117828 0.18721238
-0.21258149 -0.17735508 -0.020569015 -0.5266698 0.21164693 -0.17021196 0.0801146 -0.20139845
-0.42708838 -1.1038398 0.13898042 -0.22557771 0.14983292 0.19421466 0.017086362 -0.4120543
-0.03558578 -0.047700092 0.10258324 0.011082518 0.08118102 -0.20652966 0.14501855 0.029010398
-0.035321403 0.20066287 -0.45544413 -0.24475302 -0.271974 -0.00058378844 0.017561993 0.0831416
0.3705537 0.06719607 -0.09048957 -0.000987779 0.19809787 0.2734023 -0.17047165 -0.85199386
-0.11245934 0.6171525 0.12870577 -0.104896955 -0.026372744 -0.06762639 0.09214069 -0.2672898
0.13136111 -0.07514237 -0.05178526 -0.120554365 0.1734966 -0.39643186 0.07938621 0.11117316
0.24200825 -0.035756648 -0.2913065 -0.0035911517 0.13543469 -0.005327629 0.14926706 -0.20244074
-0.16183314 -0.003251839 0.28431278 -0.040695716 -0.028324984 0.13352403 0.25742498 -0.06787679
-0.0066719134 -0.027502885 0.04857259 0.13031846 0.034539014 -0.30769336 0.30054215 -0.049272098
-0.14814763 -0.47080588 0.24308433 -0.25275394 0.06510002 -0.46843788 -0.19333641 0.15427485
-0.24360691 0.17821334 -0.6925835 0.059730943 -0.112700604 -0.043901697 0.019526154 -0.5988588
-0.174127 -0.46139878 0.058436632 -0.29341245 0.010175927 -0.008289302 -0.01890388 -0.16979204
0.188969 0.028700825 -0.22594254 0.06296469 0.07164171 -0.15273449 -0.46716064 -0.33564645
0.037009362 -0.4422307 0.13809255 0.06685922 -0.07095594 0.09454751 -0.23601557 0.2882412
-0.032596715 -0.03405475 0.015948782 0.26711276 -0.3514123 -0.04526578 -0.15537858 0.054200243
0.10548666 -0.022329714 -0.114145756 0.024892779 -0.37133768 -0.48543966 -0.6210018 -0.081424184
-0.049592108 -0.0749742 0.27715167 -0.016955419 0.2259556 0.22969829 -0.004993198 0.044601887
-0.22841853 -0.052137703 -0.30308536 0.35048538 -0.19364357 0.08698641 -0.19966847 0.14758068
0.0473293 0.23017299 -0.6651241 -1.0746322 -0.07781106 -0.10462202 -0.024108658 -0.0729387
0.073274754 0.069003046 0.18913344 0.17505282 0.2983335 -0.010316474 0.50597984 0.062224716
0.12867473 0.041709494 -0.2631603 -0.11078167 -0.07508326 -0.20209372 -0.3417006 0.19243842
0.13459767 0.028781027 0.14643621 0.07435616 0.09722622 -0.046951283 0.31540757 0.04284466
0.16243744 0.16750553 0.20299207 0.08251267 -0.27394253 0.1580426 -0.032666363 -0.06658553
0.23015437 0.07214105 0.31500512 0.07982118 0.15039201 0.071403675 -0.0013086821 0.27348608
-0.106207676 0.083690256 -0.08423627 -0.061938304 -0.053596895 0.15030003 -0.013004527 0.1281125
0.20269486 -0.541084 0.22896932 -0.058179196 0.11703475 -0.0917937 0.09722858 0.22558829
-0.31032774 0.16935351 -0.056552872 0.14339283 -0.19075383 0.1383627 0.13053252 -0.19506095
0.002418354 -0.14944819 0.12198486 0.17789319 -0.068217 -0.7185968 0.07777156 0.2320854
-0.39350027 -0.42961186 -0.19112282 -0.015109948 0.14180137 0.27312878 -0.23078807 0.032475993

fc2.bias f4 [18]
00000000: 032b fc3c ca9e b63d e7d8 6abd e2a3 2fbd
00000010: 65ef fe3c 7525 69bd a262 fcbc 0a2a 1cbd
00000020: 5744 93bc ea76 81bd f4ea 19bd f880 083e
00000030: 2f00 e5bc 6100 fcbc b83d e4bd ca99 a2bc
00000040: 9483 bc3c b253 ae3c
0.030782228 0.08917005 -0.05733576 -0.0428809 0.031120012 -0.056920487 -0.03080875 -0.03812603
-0.017976923 -0.06321509 -0.037577584 0.13330448 -0.02795419 -0.0307619 -0.111445844 -0.019848723
0.02301196 0.021280143
